…
2022-05-23 11:07:40,738 - main.py[line:80] - INFO: Initialize the dataset...
2022-05-23 11:07:40,744 - __init__.py[line:257] - INFO: There are 100 iterations per epoch
2022-05-23 11:07:40,745 - __init__.py[line:258] - INFO: Training dataset has 1000 images.
2022-05-23 11:07:40,749 - __init__.py[line:265] - INFO: Val dataset has 1000 images.
2022-05-23 11:07:41,083 - main.py[line:91] - INFO: Finish the dataset initialization.
2022-05-23 11:07:41,092 - trainer.py[line:56] - INFO: Defining Network Structure...
2022-05-23 11:07:41,206 - trainer.py[line:69] - INFO: Sketch Transformer Sturture:
SketchTransformerModel(
  (embedding): SketchEmbedding(
    (embedding): Linear(in_features=5, out_features=128, bias=True)
  )
  (pos_embedding): SketchLearnPositionEmbedding(
    (pos_embedding): Embedding(251, 128)
  )
  (embed_refine_net): SketchEmbeddingRefineNetwork(
    (layers): ModuleList(
      (0): Linear(in_features=128, out_features=256, bias=True)
      (1): Linear(in_features=256, out_features=512, bias=True)
      (2): Linear(in_features=512, out_features=768, bias=True)
    )
  )
  (encoder): SketchALEncoder(
    (sketch_layer): SketchLayer(
      (attention): SketchMultiHeadAttention(
        (attention): SketchSelfAttention(
          (query): Linear(in_features=768, out_features=768, bias=True)
          (key): Linear(in_features=768, out_features=768, bias=True)
          (value): Linear(in_features=768, out_features=768, bias=True)
          (dropout): Dropout(p=0.5, inplace=False)
        )
        (output): SketchOutput(
          (fc): Linear(in_features=768, out_features=768, bias=True)
          (norm): LayerNorm((768,), eps=1e-05, elementwise_affine=True)
          (dropout): Dropout(p=0.5, inplace=False)
        )
      )
      (inter_layer): SketchIntermediate(
        (fc): Linear(in_features=768, out_features=3072, bias=True)
      )
      (output): SketchOutput(
        (fc): Linear(in_features=3072, out_features=768, bias=True)
        (norm): LayerNorm((768,), eps=1e-05, elementwise_affine=True)
        (dropout): Dropout(p=0.5, inplace=False)
      )
    )
  )
)
2022-05-23 11:07:46,367 - trainer.py[line:88] - INFO: Finish Construction of Networks.
2022-05-23 11:07:46,369 - trainer.py[line:100] - INFO: Finish Construction of Optimizers.
2022-05-23 11:07:46,369 - trainer.py[line:103] - INFO: Defining Losses...
2022-05-23 11:07:46,370 - trainer.py[line:108] - INFO: Finish Losses.
…
